cnn_mnist.pt (torch, 233756 bytes, 6 tensors)

weight f4 [3, 1, 5, 5]
00000000: b975 633e 8c16 78be 7af8 5cbe 2277 a1be
00000010: 49fa 47bd d6e3 a13e 421e 113f 3aa7 7e3e
00000020: 8c4f ed3e a070 143f 8292 043f d629 083f
00000030: ba9b 4d3f ba2e 3f3f 5670 073f 6172 043d
00000040: b021 af3e 835c ab3e f810 c23e dc35 b63e
00000050: 55df 97bc fd4d afbd a29e e4be ad06 80be
00000060: 6cf5 35bd 4905 323e 11b9 01be 6f80 b03d
00000070: 89f2 aa3e 7bbd 3a3e 1f1e a0bd 3dd0 8fbc
00000080: 0c81 9a3e 4c03 ff3e b2b6 393e 33a9 883e
00000090: 9eab b53e 4660 dc3e 2b79 e03e 4a31 183e
000000a0: 5d71 903e 6b83 ad3d 8f22 87bd 97d5 a83d
000000b0: 2dc6 683e 2406 7c3e c6f5 603e 6fdb e63b
000000c0: 42a2 e53d ff66 d03e a20c cabe f9a9 5cbe
000000d0: 9248 e83d d3c2 be3e 9c4e e33e e827 0abf
000000e0: dfa2 ecbd 553f 223e 2eb5 bc3e 65f6 203e
000000f0: 01a2 ccbe e5c9 98be dade 733e 21ef 043f
00000100: 9fec 9d3e e4e6 92be e67c 4c3d 88ef 833e
00000110: f944 fc3e 2053 873e 7cd0 88be f6e7 1b3d
00000120: ea44 983e d2c9 e83e b17e 3c3e
0.22212876 -0.24227351 -0.21579161 -0.31536204 -0.048822675 0.31619138 0.56686795 0.2486848
0.46349752 0.5798435 0.51786053 0.53188837 0.80315745 0.74680674 0.52905786 0.032335643
0.3420539 0.33469018 0.3790357 0.35587966 -0.01853911 -0.08559797 -0.44652277 -0.25005093
-0.044423506 0.17384829 -0.12668253 0.08618247 0.33388165 0.18236344 -0.07818245 -0.01755535
0.3017658 0.49807203 0.18136099 0.2669159 0.35482496 0.430422 0.43842444 0.14862552
0.2821149 0.084723316 -0.065983884 0.08243864 0.22731848 0.24611717 0.21968755 0.0070452015
0.11212589 0.4070358 -0.39462763 -0.21549214 0.11341967 0.37258014 0.44395912 -0.5396714
-0.11554503 0.15844472 0.3685698 0.15718992 -0.3996735 -0.29841533 0.2381548 0.5192738
0.3084459 -0.2869178 0.0499238 0.25768685 0.49271372 0.26430607 -0.2672156 0.038063012
0.29740077 0.45466477 0.18407704

bias f4 [3]
00000000: 0790 a13d b2ea 33bc 7a3f 91be
0.07888799 -0.010981249 -0.2836874

weight f4 [3, 3, 5, 5]
00000000: 1b82 0bbe 734b a53e 2536 933e 636c 283e
00000010: 19af 353e 2fc9 b33d 1a36 723e 43d0 4d3e
00000020: 646e 37be a124 60bd ed03 4c3d 6a03 433d
00000030: 029e 91be 1d16 b8be 3208 bdbd 7a80 593c
00000040: 98a9 6cbe 3abf 26be 0457 523c 39d4 55be
00000050: 1bae e3be 5265 a9bd b798 83bc aac6 583d
00000060: be55 65be 891c c93b 8706 503e 0415 933e
00000070: e16a 263e 90dd 793d aacc 413d 9b4a 113e
00000080: f410 033e 7050 54bd 71ef 0b3c bcdd 653e
00000090: b61f 9c3d 1d87 1cbe 0d9a 88be 30ac 81bd
000000a0: e558 3cbc 9a82 58be ca0f e6bd 2436 f43c
000000b0: b14b 36bd ccd6 b9bd cbc4 b4bd 95fa ddbd
000000c0: 98c5 cabd 179c 42be 0435 913d dc11 6f3e
000000d0: 6f3a 0c3e 3d29 9abd 24dc 07bc 49a8 8b3e
000000e0: f53a ba3e 9492 3b3d af1f 76bd 06cf 5fbd
000000f0: 42f3 c13e 140a 733e 35f9 42be fc84 a9be
00000100: 52ee bdbd 484b af3e e3eb f8bb bda4 01be
00000110: 5329 62be 66d3 4dbe b225 053e f2eb 813d
00000120: 0443 7e3c 6ce2 f2bc f8ca 2abe 1120 e73a
00000130: 84b2 413e 25d8 b13e 6f40 b83e 57d6 e53e
00000140: 6f62 bbbc 3076 093f 22d4 473f 2872 1c3f
00000150: 3cb9 cf3e 59f9 97be e0c2 06bf c2af 12bf
00000160: da82 b0be 3e4b d23c 4ad9 3e3e 6e9b bb3d
00000170: a14b 2d3d 6d07 f5bd f8a8 b0bd 91cf e13c
00000180: 7b86 903e 66c8 013e 2c25 9d3d 7300 e8bc
00000190: 4105 a4bd fc46 dfbd e28d 653d 6a92 c3ba
000001a0: 73fb a23e 4720 c4bd ccab 233e 9fdb a23c
000001b0: d823 c43c a9d3 193e cc4f 90be 4896 d6be
000001c0: 63bc c6be 17f9 a4be abf7 4f3d 8a9d 91bd
000001d0: f684 3abe 454b bcbd 4fca abbd 9312 bf3d
000001e0: ccc7 fb3d 2d7b ba3e a748 ad3e 53ea 813e
000001f0: 6493 6cbd f16e cf3b df10 0e3e f93f 43be
00000200: 970d d9bd 5ce1 69be 7314 58be 6128 bbbe
00000210: fd4c 40be 1b39 d4be 5962 c5bc e080 0bbe
00000220: 0422 dcbe 4bbd 0ebf a22d a1be b504 84be
00000230: 159a 35be 0b3d bdbe 78ed c5be e510 5dbe
00000240: e045 19be ad78 5f3e eaba 203e 38d3 303e
00000250: a436 863e 0a72 3e3b 39d7 b4be 9ee5 e6bc
00000260: 31bd 373e 94fc 353e 2c31 16be 09a8 093e
00000270: ee43 46be d1b5 59be 1585 12bd 6584 e5bd
00000280: afa1 d83e 6359 e13d a611 33be d466 0dbe
00000290: d9db 5dbe 8028 613c 3f32 5a3e 2418 0b3e
000002a0: 41e2 6d3d 9a60 d03c 6a6e 773c a49c bb3e
000002b0: 1b3f fc3e ef7c f73e 48f9 9e3e 06ba 95be
000002c0: a58e dcbd 45f7 0e3c c518 d1bc 9726 e9bd
000002d0: 31fe 9a3e 8109 6e3d 8c56 0ebe ffec 21bd
000002e0: adb9 18be 8ff5 ad3e eb04 453c a802 6bbe
000002f0: 636e 8fbd 5b7c 8dbd 4454 1b3e 5850 b23c
00000300: c2d9 d23d 1783 0e3b 989e 39be 3863 f1bc
00000310: 0979 3f3e ca8c 603e f880 933e 075a c53d
00000320: 44ae 9b3d 8f12 c1bc 9626 803d fbdb e73d
00000330: 93f5 87bd a5a7 6c3e 5103 bcbd be2a 03be
00000340: 4d6a 24bd 8ff8 96bc 34fc 413e 3f14 f0bd
00000350: 2934 c7bd cb8d 75be 6de3 2bbe a5e5 4a3b
00000360: 772b 9abd ee5a d9bd e9b0 31be 109c f2bc
00000370: 0ef6 ea3d 4e5a 963c cd2c 8cbd 649a 28bb
00000380: acc2 93bb
-0.1362385 0.32284126 0.28752246 0.16447596 0.17742576 0.08778607 0.2365345 0.20098977
-0.17913204 -0.054722432 0.04980843 0.047610678 -0.28440863 -0.3595437 -0.09230079 0.01327526
-0.2311157 -0.16283885 0.012838129 -0.20881738 -0.4446877 -0.082712784 -0.016064031 0.052923836
-0.2239599 0.006137435 0.2031499 0.2872697 0.16251709 0.061002314 0.047314323 0.14188616
0.12799436 -0.051834524 0.008540974 0.22447866 0.07623236 -0.15285917 -0.2668003 -0.0633167
-0.0114958035 -0.2114357 -0.1123348 0.029810973 -0.04450578 -0.090741724 -0.08826598 -0.1083881
-0.09900969 -0.19004856 0.0709019 0.23346657 0.13694166 -0.07527397 -0.008292232 0.2727683
0.36373106 0.045794085 -0.06008881 -0.054640792 0.37880903 0.23734313 -0.19040377 -0.33109272
-0.092739716 0.34237123 -0.0075964793 -0.12660499 -0.22086076 -0.20100173 0.13002661 0.06343831
0.015518907 -0.029648982 -0.16678989 0.0017633458 0.18915755 0.34735218 0.3598666 0.4489009
-0.022874085 0.53695965 0.78058064 0.6111169 0.4057101 -0.29682425 -0.52641106 -0.57299435
-0.34474832 0.025670644 0.18637577 0.09160505 0.042308453 -0.11964307 -0.08625978 0.027564796
0.282276 0.12674102 0.076731056 -0.028320527 -0.080088146 -0.10902211 0.056043513 -0.0014920954
0.31832466 -0.09576469 0.15983504 0.019880114 0.023942873 0.15022148 -0.2818588 -0.4191153
-0.38815603 -0.3222129 0.050773304 -0.07110126 -0.18214783 -0.09194044 -0.08388197 0.093297146
0.122939676 0.364221 0.33844492 0.25374088 -0.05775775 0.006330364 0.13873623 -0.19067372
-0.10598295 -0.22839874 -0.21101551 -0.36554244 -0.18779369 -0.41449818 -0.024094747 -0.1362338
-0.42994702 -0.5575759 -0.31480128 -0.2578484 -0.17734559 -0.36960635 -0.38657737 -0.21588476
-0.14968061 0.21823378 0.15696302 0.17268074 0.26213562 0.0029059672 -0.35320452 -0.028185662
0.17943265 0.17772132 -0.14667195 0.13443007 -0.1936185 -0.21260764 -0.03577145 -0.11206893
0.42310855 0.11003377 -0.17487201 -0.13808757 -0.21665896 0.013742566 0.2130823 0.13583428
0.0580771 0.025436688 0.015102008 0.36642945 0.49266896 0.48337504 0.31049562 -0.29243487
-0.10769395 0.008725946 -0.025524506 -0.113843136 0.30272058 0.058114532 -0.13900203 -0.039532658
-0.1491458 0.3397641 0.012025098 -0.22950232 -0.070034765 -0.069084845 0.15168864 0.021766827
0.1029544 0.0021745616 -0.18126905 -0.029466256 0.18698515 0.21928707 0.28809333 0.09636312
0.07601598 -0.02356842 0.0625736 0.11321255 -0.066386364 0.23110826 -0.0918032 -0.12809274
-0.04014044 -0.018429069 0.18943864 -0.11722612 -0.09726746 -0.23979871 -0.16785975 0.0030959633
-0.075278215 -0.106130466 -0.17352642 -0.029615432 0.114727125 0.018353608 -0.068444826 -0.002572679
-0.0045092907

bias f4 [3]
00000000: 6634 d63d 5dfd db3d 6533 963d
0.10459213 0.107416846 0.073340215

weight f4 [10, 48]
00000000: dda1 81bc 456f 083d 686a 243d cf56 fbbd
00000010: 7524 bf3d 77bd cd3d 619d 283e eaad 6dbd
00000020: 27c1 fb3d 26ed e73d c08a b5be cb06 1abb
00000030: 3180 463d b8e8 533d bcdd 12bd 7ceb 6d3e
00000040: bf8c 0cbe 3bdf e53d a4cd 743d d009 78bd
00000050: 4514 acbe e5e2 173c 85e9 803e 1b80 05be
00000060: 4109 b8be 7cb4 d3bd cd55 6ebd 1443 c1bd
00000070: 6d00 39bd 1e06 3abe 8c27 3bbd b4da 0c3e
00000080: ae0b 5a3e fb6a 043d e4eb abbb 8db5 a83e
00000090: 9481 b43c 78d3 2cbe 1d3e 2cbe c078 d7bd
000000a0: 80dd 1a3d 5365 a73e 4879 b53e 1954 b7be
000000b0: d4b7 863d b2e2 e63e 4d1a 89bd b4f1 3fbe
000000c0: d9e8 613d 0f5b 6d3d af1b cf3e 9678 d93d
000000d0: 6786 293e 6d0e 7a3d 6b93 8a3e 6af9 d439
000000e0: 4cdb ff3d bb52 db3d b59f 843e c6a9 db3d
000000f0: 0cc8 013e 877b cb3d 651c 733e 9bb0 78be
00000100: bdb1 803e 6345 68be c567 40be 1032 6dbe
00000110: 6efe 2abc 6dc1 f1bd 68d4 95be 409f b8be
00000120: 750f 1dbd ce86 bebd 6e58 5fbe e6c2 b5bd
00000130: a2cf 26be f654 043c 0b72 29be a572 a93d
00000140: 176d 7a3d 0298 1f3e e132 b9b9 278c 8cbe
00000150: 348c 423e 61be 9fbe 2368 73be 0027 743e
00000160: fe93 bf3e 8531 a5be 5846 953e f607 8f3e
00000170: fd40 a43d 5b7a 2bbd 6ae4 203e 24a8 4dbd
00000180: d9a8 4a3d c200 f6bd c013 c2bd 0583 ccbd
00000190: 3e37 f6bc ce91 243d 0fd4 95bd f028 86be
000001a0: 472e 903d edb3 d73c 3c57 05bd 70a5 8d3e
000001b0: c70a c53e 4098 863e 794b 883d 0032 e2bd
000001c0: abbc 8d3e 03f6 243e cc98 093e edd1 04bd
000001d0: 9d09 cd3e 098b 313e 8d8f be3d 5be7 a6be
000001e0: 3a8b b63c d28b c13c 3a7e 88bd 4586 2c3d
000001f0: 7b56 97be 89ad 40bd 742a 67be 0250 093f
00000200: b256 a83d 6cd8 33be 71fc 6ebe eb6b 8fbd
00000210: 22c0 4cbd a2ed 11be 2955 0fbe c1ce bbbb
00000220: 5c28 10be c5ac 293e 3545 cf3e 3f8c a63e
00000230: c089 ed3d c496 7a3e 6e54 9bbc e7ce 9d3d
00000240: 3606 0ebe 8342 bdbe 09c4 70bd af6c 6dbd
00000250: 15f9 a53d 42fc 2abd 413c 2fbe a0db 7e3e
00000260: d032 3fbe 5ad6 5ebb 1f60 d63d e9df 47bd
00000270: 99dc 83be cbcb 40be 4351 39be 1798 4eba
00000280: 3b2a b53e 7a38 183e 0780 113e ea23 bebd
00000290: a95f ed3e 2493 8e3d 4813 173e 7b90 adbd
000002a0: f0e1 2a3e add8 9a3d e526 a53e 4c28 1c3d
000002b0: 3dc7 2a3e de04 253e 2abb a63d dbdd 1fbe
000002c0: 8677 14be a9e6 57be a85a c0bd 533d 603d
000002d0: 6548 14be 7bf4 75be 5ed1 5a3e 151b 5e3d
000002e0: f169 333e 17d0 69be f038 523e 48db 5d3d
000002f0: 91fd 323e 372e 733c 241c 9abd e3a5 8fbd
00000300: 6b1b 8abd dbb6 853d a5c2 0e3d 89da 4f3e
00000310: b75f 9cbd 4c7d f8bd 3491 e9bd ecd9 9e3e
00000320: 1c83 5f3d 81b0 02bd 15f4 88bd f9bb 553e
00000330: 403d b9bc 42bc b7bd ab3b 333e ad77 b83d
00000340: 52cd 4cbe 0af4 eabe a1a0 adbe aec5 b2be
00000350: 9e70 a8be 7e3b a0be dd59 afbe 9528 b3be
00000360: 89bd 013e 78d4 273e 1617 463d 8662 653e
00000370: b0ae 4e3e 6d6e a7bc 029f 353e 7a53 153d
00000380: 16ed 28be 996e 393d 9383 37be b0d6 8ebe
00000390: 7118 883e 31b7 0c3f b8ff ef3d 6ccd 8e3d
000003a0: 41d6 76bd 6d28 fd3d 7df2 bebe 61f2 1b3e
000003b0: 6afa 38be 2732 77be 9557 03be 18a9 653e
000003c0: 01ba 083e 530c 383e 3460 1b3e 4154 173d
000003d0: 07b0 003d 366a 8a3d 8323 33bd c519 d93d
000003e0: 5ce8 d2bd b400 a03c 5e81 15be 2ad5 55be
000003f0: 6345 eebd 93a6 0abd 82a5 f23b 00fc 67be
-0.015824253 0.03330924 0.04014054 -0.12272417 0.093331255 0.10045903 0.16466285 -0.058027185
0.122927 0.11324529 -0.3545742 -0.0023502584 0.048462097 0.05173561 -0.035855994 0.23234361
-0.13725565 0.112242185 0.059766427 -0.060556233 -0.33609214 0.009270404 0.2517816 -0.1303715
-0.3594456 -0.10337159 -0.058187295 -0.09436622 -0.04516642 -0.18166396 -0.04569201 0.13755304
0.21293518 0.032328587 -0.005246626 0.32951012 0.022034444 -0.16877544 -0.1682057 -0.10521078
0.037808895 0.32694492 0.35444093 -0.3580635 0.06578031 0.4509483 -0.066944696 -0.18744546
0.0551537 0.05794817 0.40450808 0.10618703 0.16555177 0.061048914 0.27065596 0.0004062162
0.124929994 0.10709139 0.25903097 0.10725741 0.12673968 0.0993567 0.237413 -0.2428612
0.25135604 -0.22682719 -0.18789585 -0.23163629 -0.010436637 -0.11804471 -0.29263616 -0.36058998
-0.03834482 -0.09303056 -0.21811077 -0.088750646 -0.16290143 0.008076897 -0.1654741 0.0827382
0.061139192 0.1558533 -0.00035323857 -0.27450678 0.18998796 -0.31199935 -0.23770194 0.23843002
0.37417597 -0.32264343 0.2915523 0.2793576 0.08020208 -0.041864734 0.15712133 -0.05020918
0.049477432 -0.12011863 -0.09476423 -0.099859275 -0.030055638 0.040178113 -0.073158376 -0.26203108
0.07040077 0.026330912 -0.032553896 0.2766528 0.38484785 0.26288033 0.0665502 -0.11044693
0.27683005 0.16109471 0.13437194 -0.032426763 0.40046397 0.17338194 0.09304724 -0.32598385
0.022283185 0.023626242 -0.06664701 0.042120237 -0.29558167 -0.047040496 -0.22574788 0.5363771
0.08219661 -0.17563027 -0.23338486 -0.070030056 -0.04998792 -0.14250806 -0.1399733 -0.005731434
-0.14077896 0.16569813 0.40482488 0.32528874 0.11598539 0.24471575 -0.018961158 0.07705479
-0.13869557 -0.36964807 -0.058780704 -0.057964977 0.08104149 -0.041744478 -0.17112829 0.24888468
-0.18671727 -0.0034002275 0.104675524 -0.04879752 -0.2575424 -0.18827741 -0.18097405 -0.00078809395
0.35383782 0.14865294 0.14208995 -0.09284194 0.46362045 0.069616586 0.14753449 -0.08474823
0.16687751 0.07560859 0.32256237 0.038124368 0.16677566 0.16115138 0.081411675 -0.15611975
-0.1449872 -0.21084084 -0.09392291 0.054745983 -0.14480741 -0.24019043 0.2136893 0.054225046
0.17520882 -0.22833286 0.20529532 0.0541642 0.1747954 0.014842561 -0.07524899 -0.07014062
-0.06743511 0.065290175 0.034853596 0.20298208 -0.07635444 -0.121332735 -0.114046484 0.31025636
0.054568395 -0.03190661 -0.0668718 0.20872487 -0.022612214 -0.08971454 0.1750323 0.09007201
-0.20000198 -0.45889312 -0.33911613 -0.34916443 -0.3289842 -0.3129539 -0.34248248 -0.349919
0.12669958 0.16389644 0.04836186 0.22400865 0.20183825 -0.020438397 0.17736438 0.036456563
-0.16496691 0.04527149 -0.17921285 -0.2789817 0.26581147 0.5496703 0.11718696 0.06972775
-0.060262922 0.12361226 -0.3729438 0.15229179 -0.18064275 -0.24140225 -0.12826379 0.22427785
0.13352205 0.17973451 0.15173417 0.036945585 0.031417873 0.067585394 -0.04373504 0.10600618
-0.10298225 0.019531585 -0.14600131 -0.20882097 -0.11634328 -0.033850264 0.007404984 -0.22654724

bias f4 [10]
00000000: a873 c5bd 2317 bd3d a223 09be 77bd 1cbe
00000010: ac3d 173e c512 a83c 5c7c 043e 62b6 623d
00000020: 6eb8 633d 1165 4e3c
-0.096412 0.092329286 -0.13392499 -0.1530665 0.1476962 0.020516763 0.12938064 0.055349715
0.055595808 0.012597338
